…
RAM AFTER DECLARING GENERATOR: 2.7022628784179688
MACs of model: 43516992
RAM BEFORE REPORTING: 2.707904815673828

Parameter-stamp...
 --> task:          splitAffectNet4-task
 --> model:         ALEXNET_c8
 --> hyper-params:  i2000-lr0.0001-b128-adam
 --> replay:        generative-VAE(MLP([30000, 1600, 1600])--z100-c8)
splitAffectNet4-task--ALEXNET_c8--i2000-lr0.0001-b128-adam--generative-VAE(MLP([30000, 1600, 1600])--z100-c8)-s5915

----------------------------------------MAIN MODEL----------------------------------------
PretrainedRootClassifier(
  (root): AlexNet(
    (features): Sequential(
      (0): Conv2d(3, 64, kernel_size=(11, 11), stride=(4, 4), padding=(2, 2))
      (1): ReLU(inplace=True)
      (2): MaxPool2d(kernel_size=3, stride=2, padding=0, dilation=1, ceil_mode=False)
      (3): Conv2d(64, 192, kernel_size=(5, 5), stride=(1, 1), padding=(2, 2))
      (4): ReLU(inplace=True)
      (5): MaxPool2d(kernel_size=3, stride=2, padding=0, dilation=1, ceil_mode=False)
      (6): Conv2d(192, 384, kernel_size=(3, 3), stride=(1, 1), padding=(1, 1))
      (7): ReLU(inplace=True)
      (8): Conv2d(384, 256, kernel_size=(3, 3), stride=(1, 1), padding=(1, 1))
      (9): ReLU(inplace=True)
      (10): Conv2d(256, 256, kernel_size=(3, 3), stride=(1, 1), padding=(1, 1))
      (11): ReLU(inplace=True)
      (12): MaxPool2d(kernel_size=3, stride=2, padding=0, dilation=1, ceil_mode=False)
    )
    (avgpool): AdaptiveAvgPool2d(output_size=(6, 6))
    (classifier): Sequential(
      (0): Dropout(p=0.5, inplace=False)
      (1): Linear(in_features=9216, out_features=4096, bias=True)
      (2): ReLU(inplace=True)
      (3): Dropout(p=0.5, inplace=False)
      (4): Linear(in_features=4096, out_features=4096, bias=True)
      (5): ReLU(inplace=True)
      (6): Linear(in_features=4096, out_features=1000, bias=True)
    )
  )
  (dropout2): Dropout(p=0.5, inplace=False)
  (fc1): Linear(in_features=4096, out_features=128, bias=True)
  (fc2): Linear(in_features=128, out_features=8, bias=True)
)
------------------------------------------------------------------------------------------
--> this network has 61626288 parameters (~61.6 million)
      of which: - learnable: 525448 (~0.5 million)
                - fixed: 61100840 (~61.1 million)
------------------------------------------------------------------------------------------

----------------------------------------GENERATOR----------------------------------------
…
